…
(?, ?, 120)
(?, ?, 1)
5 240 288
(?, 48, 60)
(?, ?, 120)
(?, ?, 1)
6 288 336
(?, 48, 60)
(?, ?, 120)
(?, ?, 1)
7 336 384
(?, 48, 60)
(?, ?, 120)
(?, ?, 1)
8 384 432
(?, 48, 60)
(?, ?, 120)
(?, ?, 1)
9 432 480
(?, 48, 60)
(?, ?, 120)
(?, ?, 1)
(?, 48, 1)
(?, 480, 1)
____________________________________________________________________________________________________
Layer (type)                     Output Shape          Param #     Connected to                     
====================================================================================================
input_1 (InputLayer)             (None, 480, 60)       0                                            
____________________________________________________________________________________________________
lambda_1 (Lambda)                (None, 48, 60)        0           input_1[0][0]                    
____________________________________________________________________________________________________
lambda_2 (Lambda)                (None, 48, 60)        0           input_1[0][0]                    
____________________________________________________________________________________________________
lstm_1 (LSTM)                    (None, 48, 60)        29040       lambda_1[0][0]                   
____________________________________________________________________________________________________
lstm_2 (LSTM)                    (None, 48, 60)        29040       lambda_1[0][0]                   
____________________________________________________________________________________________________
lstm_3 (LSTM)                    (None, 48, 60)        29040       lambda_2[0][0]                   
____________________________________________________________________________________________________
lstm_4 (LSTM)                    (None, 48, 60)        29040       lambda_2[0][0]                   
____________________________________________________________________________________________________
lambda_3 (Lambda)                (None, 48, 60)        0           input_1[0][0]                    
____________________________________________________________________________________________________
concatenate_1 (Concatenate)      (None, 48, 120)       0           lstm_1[0][0]                     
                                                                   lstm_2[0][0]                     
____________________________________________________________________________________________________
concatenate_2 (Concatenate)      (None, 48, 120)       0           lstm_3[0][0]                     
                                                                   lstm_4[0][0]                     
____________________________________________________________________________________________________
lstm_5 (LSTM)                    (None, 48, 60)        29040       lambda_3[0][0]                   
____________________________________________________________________________________________________
lstm_6 (LSTM)                    (None, 48, 60)        29040       lambda_3[0][0]                   
____________________________________________________________________________________________________
lambda_4 (Lambda)                (None, 48, 60)        0           input_1[0][0]                    
____________________________________________________________________________________________________
conv1d_1 (Conv1D)                (None, 48, 1)         121         concatenate_1[0][0]              
____________________________________________________________________________________________________
conv1d_2 (Conv1D)                (None, 48, 1)         121         concatenate_2[0][0]              
____________________________________________________________________________________________________
concatenate_3 (Concatenate)      (None, 48, 120)       0           lstm_5[0][0]                     
                                                                   lstm_6[0][0]                     
____________________________________________________________________________________________________
lstm_7 (LSTM)                    (None, 48, 60)        29040       lambda_4[0][0]                   
____________________________________________________________________________________________________
lstm_8 (LSTM)                    (None, 48, 60)        29040       lambda_4[0][0]                   
____________________________________________________________________________________________________
lambda_5 (Lambda)                (None, 48, 60)        0           input_1[0][0]                    
____________________________________________________________________________________________________
dense_1 (Dense)                  (None, 48, 1)         2           conv1d_1[0][0]                   
____________________________________________________________________________________________________
dense_2 (Dense)                  (None, 48, 1)         2           conv1d_2[0][0]                   
____________________________________________________________________________________________________
conv1d_3 (Conv1D)                (None, 48, 1)         121         concatenate_3[0][0]              
____________________________________________________________________________________________________
concatenate_4 (Concatenate)      (None, 48, 120)       0           lstm_7[0][0]                     
                                                                   lstm_8[0][0]                     
____________________________________________________________________________________________________
lstm_9 (LSTM)                    (None, 48, 60)        29040       lambda_5[0][0]                   
____________________________________________________________________________________________________
lstm_10 (LSTM)                   (None, 48, 60)        29040       lambda_5[0][0]                   
____________________________________________________________________________________________________
lambda_6 (Lambda)                (None, 48, 60)        0           input_1[0][0]                    
____________________________________________________________________________________________________
concatenate_11 (Concatenate)     (None, 96, 1)         0           dense_1[0][0]                    
                                                                   dense_2[0][0]                    
____________________________________________________________________________________________________
dense_3 (Dense)                  (None, 48, 1)         2           conv1d_3[0][0]                   
____________________________________________________________________________________________________
conv1d_4 (Conv1D)                (None, 48, 1)         121         concatenate_4[0][0]              
____________________________________________________________________________________________________
concatenate_5 (Concatenate)      (None, 48, 120)       0           lstm_9[0][0]                     
                                                                   lstm_10[0][0]                    
____________________________________________________________________________________________________
lstm_11 (LSTM)                   (None, 48, 60)        29040       lambda_6[0][0]                   
____________________________________________________________________________________________________
lstm_12 (LSTM)                   (None, 48, 60)        29040       lambda_6[0][0]                   
____________________________________________________________________________________________________
lambda_7 (Lambda)                (None, 48, 60)        0           input_1[0][0]                    
____________________________________________________________________________________________________
concatenate_12 (Concatenate)     (None, 144, 1)        0           concatenate_11[0][0]             
                                                                   dense_3[0][0]                    
____________________________________________________________________________________________________
dense_4 (Dense)                  (None, 48, 1)         2           conv1d_4[0][0]                   
____________________________________________________________________________________________________
conv1d_5 (Conv1D)                (None, 48, 1)         121         concatenate_5[0][0]              
____________________________________________________________________________________________________
concatenate_6 (Concatenate)      (None, 48, 120)       0           lstm_11[0][0]                    
                                                                   lstm_12[0][0]                    
____________________________________________________________________________________________________
lstm_13 (LSTM)                   (None, 48, 60)        29040       lambda_7[0][0]                   
____________________________________________________________________________________________________
lstm_14 (LSTM)                   (None, 48, 60)        29040       lambda_7[0][0]                   
____________________________________________________________________________________________________
lambda_8 (Lambda)                (None, 48, 60)        0           input_1[0][0]                    
____________________________________________________________________________________________________
concatenate_13 (Concatenate)     (None, 192, 1)        0           concatenate_12[0][0]             
                                                                   dense_4[0][0]                    
____________________________________________________________________________________________________
dense_5 (Dense)                  (None, 48, 1)         2           conv1d_5[0][0]                   
____________________________________________________________________________________________________
conv1d_6 (Conv1D)                (None, 48, 1)         121         concatenate_6[0][0]              
____________________________________________________________________________________________________
concatenate_7 (Concatenate)      (None, 48, 120)       0           lstm_13[0][0]                    
                                                                   lstm_14[0][0]                    
____________________________________________________________________________________________________
lstm_15 (LSTM)                   (None, 48, 60)        29040       lambda_8[0][0]                   
____________________________________________________________________________________________________
lstm_16 (LSTM)                   (None, 48, 60)        29040       lambda_8[0][0]                   
____________________________________________________________________________________________________
lambda_9 (Lambda)                (None, 48, 60)        0           input_1[0][0]                    
____________________________________________________________________________________________________
concatenate_14 (Concatenate)     (None, 240, 1)        0           concatenate_13[0][0]             
                                                                   dense_5[0][0]                    
____________________________________________________________________________________________________
dense_6 (Dense)                  (None, 48, 1)         2           conv1d_6[0][0]                   
____________________________________________________________________________________________________
conv1d_7 (Conv1D)                (None, 48, 1)         121         concatenate_7[0][0]              
____________________________________________________________________________________________________
concatenate_8 (Concatenate)      (None, 48, 120)       0           lstm_15[0][0]                    
                                                                   lstm_16[0][0]                    
____________________________________________________________________________________________________
lstm_17 (LSTM)                   (None, 48, 60)        29040       lambda_9[0][0]                   
____________________________________________________________________________________________________
lstm_18 (LSTM)                   (None, 48, 60)        29040       lambda_9[0][0]                   
____________________________________________________________________________________________________
lambda_10 (Lambda)               (None, 48, 60)        0           input_1[0][0]                    
____________________________________________________________________________________________________
concatenate_15 (Concatenate)     (None, 288, 1)        0           concatenate_14[0][0]             
                                                                   dense_6[0][0]                    
____________________________________________________________________________________________________
dense_7 (Dense)                  (None, 48, 1)         2           conv1d_7[0][0]                   
____________________________________________________________________________________________________
conv1d_8 (Conv1D)                (None, 48, 1)         121         concatenate_8[0][0]              
____________________________________________________________________________________________________
concatenate_9 (Concatenate)      (None, 48, 120)       0           lstm_17[0][0]                    
                                                                   lstm_18[0][0]                    
____________________________________________________________________________________________________
lstm_19 (LSTM)                   (None, 48, 60)        29040       lambda_10[0][0]                  
____________________________________________________________________________________________________
lstm_20 (LSTM)                   (None, 48, 60)        29040       lambda_10[0][0]                  
____________________________________________________________________________________________________
concatenate_16 (Concatenate)     (None, 336, 1)        0           concatenate_15[0][0]             
                                                                   dense_7[0][0]                    
____________________________________________________________________________________________________
dense_8 (Dense)                  (None, 48, 1)         2           conv1d_8[0][0]                   
____________________________________________________________________________________________________
conv1d_9 (Conv1D)                (None, 48, 1)         121         concatenate_9[0][0]              
____________________________________________________________________________________________________
concatenate_10 (Concatenate)     (None, 48, 120)       0           lstm_19[0][0]                    
                                                                   lstm_20[0][0]                    
____________________________________________________________________________________________________
concatenate_17 (Concatenate)     (None, 384, 1)        0           concatenate_16[0][0]             
                                                                   dense_8[0][0]                    
____________________________________________________________________________________________________
dense_9 (Dense)                  (None, 48, 1)         2           conv1d_9[0][0]                   
____________________________________________________________________________________________________
conv1d_10 (Conv1D)               (None, 48, 1)         121         concatenate_10[0][0]             
____________________________________________________________________________________________________
concatenate_18 (Concatenate)     (None, 432, 1)        0           concatenate_17[0][0]             
                                                                   dense_9[0][0]                    
____________________________________________________________________________________________________
dense_10 (Dense)                 (None, 48, 1)         2           conv1d_10[0][0]                  
____________________________________________________________________________________________________
concatenate_19 (Concatenate)     (None, 480, 1)        0           concatenate_18[0][0]             
                                                                   dense_10[0][0]                   
____________________________________________________________________________________________________
lstm_21 (LSTM)                   (None, 480, 1)        12          concatenate_19[0][0]             
____________________________________________________________________________________________________
lstm_22 (LSTM)                   (None, 480, 1)        12          concatenate_19[0][0]             
____________________________________________________________________________________________________
concatenate_20 (Concatenate)     (None, 480, 2)        0           lstm_21[0][0]                    
                                                                   lstm_22[0][0]                    
____________________________________________________________________________________________________
conv1d_11 (Conv1D)               (None, 480, 1)        3           concatenate_20[0][0]             
====================================================================================================
Total params: 582,057
Trainable params: 582,057
Non-trainable params: 0
____________________________________________________________________________________________________
Epoch 1/5
(436, 480, 60) (436, 10, 1)
(440, 480, 60) (440, 10, 1)
(?, 480, 60)
0 0 48
…
(?, 48, 60)
(?, ?, 120)
(?, ?, 1)
5 240 288
(?, 48, 60)
(?, ?, 120)
(?, ?, 1)
6 288 336
(?, 48, 60)
(?, ?, 120)
(?, ?, 1)
7 336 384
(?, 48, 60)
(?, ?, 120)
(?, ?, 1)
8 384 432
(?, 48, 60)
(?, ?, 120)
(?, ?, 1)
9 432 480
(?, 48, 60)
(?, ?, 120)
(?, ?, 1)
(?, 1, 1)
(?, 10, 1)
____________________________________________________________________________________________________
Layer (type)                     Output Shape          Param #     Connected to                     
====================================================================================================
input_1 (InputLayer)             (None, 480, 60)       0                                            
____________________________________________________________________________________________________
lambda_1 (Lambda)                (None, 48, 60)        0           input_1[0][0]                    
____________________________________________________________________________________________________
lambda_2 (Lambda)                (None, 48, 60)        0           input_1[0][0]                    
____________________________________________________________________________________________________
lstm_1 (LSTM)                    (None, 48, 60)        29040       lambda_1[0][0]                   
____________________________________________________________________________________________________
lstm_2 (LSTM)                    (None, 48, 60)        29040       lambda_1[0][0]                   
____________________________________________________________________________________________________
lstm_3 (LSTM)                    (None, 48, 60)        29040       lambda_2[0][0]                   
____________________________________________________________________________________________________
lstm_4 (LSTM)                    (None, 48, 60)        29040       lambda_2[0][0]                   
____________________________________________________________________________________________________
lambda_3 (Lambda)                (None, 48, 60)        0           input_1[0][0]                    
____________________________________________________________________________________________________
concatenate_1 (Concatenate)      (None, 48, 120)       0           lstm_1[0][0]                     
                                                                   lstm_2[0][0]                     
____________________________________________________________________________________________________
concatenate_2 (Concatenate)      (None, 48, 120)       0           lstm_3[0][0]                     
                                                                   lstm_4[0][0]                     
____________________________________________________________________________________________________
lstm_5 (LSTM)                    (None, 48, 60)        29040       lambda_3[0][0]                   
____________________________________________________________________________________________________
lstm_6 (LSTM)                    (None, 48, 60)        29040       lambda_3[0][0]                   
____________________________________________________________________________________________________
lambda_4 (Lambda)                (None, 48, 60)        0           input_1[0][0]                    
____________________________________________________________________________________________________
conv1d_1 (Conv1D)                (None, 48, 1)         121         concatenate_1[0][0]              
____________________________________________________________________________________________________
conv1d_2 (Conv1D)                (None, 48, 1)         121         concatenate_2[0][0]              
____________________________________________________________________________________________________
concatenate_3 (Concatenate)      (None, 48, 120)       0           lstm_5[0][0]                     
                                                                   lstm_6[0][0]                     
____________________________________________________________________________________________________
lstm_7 (LSTM)                    (None, 48, 60)        29040       lambda_4[0][0]                   
____________________________________________________________________________________________________
lstm_8 (LSTM)                    (None, 48, 60)        29040       lambda_4[0][0]                   
____________________________________________________________________________________________________
lambda_5 (Lambda)                (None, 48, 60)        0           input_1[0][0]                    
____________________________________________________________________________________________________
flatten_1 (Flatten)              (None, 48)            0           conv1d_1[0][0]                   
____________________________________________________________________________________________________
flatten_2 (Flatten)              (None, 48)            0           conv1d_2[0][0]                   
____________________________________________________________________________________________________
conv1d_3 (Conv1D)                (None, 48, 1)         121         concatenate_3[0][0]              
____________________________________________________________________________________________________
concatenate_4 (Concatenate)      (None, 48, 120)       0           lstm_7[0][0]                     
                                                                   lstm_8[0][0]                     
____________________________________________________________________________________________________
lstm_9 (LSTM)                    (None, 48, 60)        29040       lambda_5[0][0]                   
____________________________________________________________________________________________________
lstm_10 (LSTM)                   (None, 48, 60)        29040       lambda_5[0][0]                   
____________________________________________________________________________________________________
lambda_6 (Lambda)                (None, 48, 60)        0           input_1[0][0]                    
____________________________________________________________________________________________________
dense_1 (Dense)                  (None, 1)             49          flatten_1[0][0]                  
____________________________________________________________________________________________________
dense_2 (Dense)                  (None, 1)             49          flatten_2[0][0]                  
____________________________________________________________________________________________________
flatten_3 (Flatten)              (None, 48)            0           conv1d_3[0][0]                   
____________________________________________________________________________________________________
conv1d_4 (Conv1D)                (None, 48, 1)         121         concatenate_4[0][0]              
____________________________________________________________________________________________________
concatenate_5 (Concatenate)      (None, 48, 120)       0           lstm_9[0][0]                     
                                                                   lstm_10[0][0]                    
____________________________________________________________________________________________________
lstm_11 (LSTM)                   (None, 48, 60)        29040       lambda_6[0][0]                   
____________________________________________________________________________________________________
lstm_12 (LSTM)                   (None, 48, 60)        29040       lambda_6[0][0]                   
____________________________________________________________________________________________________
lambda_7 (Lambda)                (None, 48, 60)        0           input_1[0][0]                    
____________________________________________________________________________________________________
reshape_1 (Reshape)              (None, 1, 1)          0           dense_1[0][0]                    
____________________________________________________________________________________________________
reshape_2 (Reshape)              (None, 1, 1)          0           dense_2[0][0]                    
____________________________________________________________________________________________________
dense_3 (Dense)                  (None, 1)             49          flatten_3[0][0]                  
____________________________________________________________________________________________________
flatten_4 (Flatten)              (None, 48)            0           conv1d_4[0][0]                   
____________________________________________________________________________________________________
conv1d_5 (Conv1D)                (None, 48, 1)         121         concatenate_5[0][0]              
____________________________________________________________________________________________________
concatenate_6 (Concatenate)      (None, 48, 120)       0           lstm_11[0][0]                    
                                                                   lstm_12[0][0]                    
____________________________________________________________________________________________________
lstm_13 (LSTM)                   (None, 48, 60)        29040       lambda_7[0][0]                   
____________________________________________________________________________________________________
lstm_14 (LSTM)                   (None, 48, 60)        29040       lambda_7[0][0]                   
____________________________________________________________________________________________________
lambda_8 (Lambda)                (None, 48, 60)        0           input_1[0][0]                    
____________________________________________________________________________________________________
concatenate_11 (Concatenate)     (None, 2, 1)          0           reshape_1[0][0]                  
                                                                   reshape_2[0][0]                  
____________________________________________________________________________________________________
reshape_3 (Reshape)              (None, 1, 1)          0           dense_3[0][0]                    
____________________________________________________________________________________________________
dense_4 (Dense)                  (None, 1)             49          flatten_4[0][0]                  
____________________________________________________________________________________________________
flatten_5 (Flatten)              (None, 48)            0           conv1d_5[0][0]                   
____________________________________________________________________________________________________
conv1d_6 (Conv1D)                (None, 48, 1)         121         concatenate_6[0][0]              
____________________________________________________________________________________________________
concatenate_7 (Concatenate)      (None, 48, 120)       0           lstm_13[0][0]                    
                                                                   lstm_14[0][0]                    
____________________________________________________________________________________________________
lstm_15 (LSTM)                   (None, 48, 60)        29040       lambda_8[0][0]                   
____________________________________________________________________________________________________
lstm_16 (LSTM)                   (None, 48, 60)        29040       lambda_8[0][0]                   
____________________________________________________________________________________________________
lambda_9 (Lambda)                (None, 48, 60)        0           input_1[0][0]                    
____________________________________________________________________________________________________
concatenate_12 (Concatenate)     (None, 3, 1)          0           concatenate_11[0][0]             
                                                                   reshape_3[0][0]                  
____________________________________________________________________________________________________
reshape_4 (Reshape)              (None, 1, 1)          0           dense_4[0][0]                    
____________________________________________________________________________________________________
dense_5 (Dense)                  (None, 1)             49          flatten_5[0][0]                  
____________________________________________________________________________________________________
flatten_6 (Flatten)              (None, 48)            0           conv1d_6[0][0]                   
____________________________________________________________________________________________________
conv1d_7 (Conv1D)                (None, 48, 1)         121         concatenate_7[0][0]              
____________________________________________________________________________________________________
concatenate_8 (Concatenate)      (None, 48, 120)       0           lstm_15[0][0]                    
                                                                   lstm_16[0][0]                    
____________________________________________________________________________________________________
lstm_17 (LSTM)                   (None, 48, 60)        29040       lambda_9[0][0]                   
____________________________________________________________________________________________________
lstm_18 (LSTM)                   (None, 48, 60)        29040       lambda_9[0][0]                   
____________________________________________________________________________________________________
lambda_10 (Lambda)               (None, 48, 60)        0           input_1[0][0]                    
____________________________________________________________________________________________________
concatenate_13 (Concatenate)     (None, 4, 1)          0           concatenate_12[0][0]             
                                                                   reshape_4[0][0]                  
____________________________________________________________________________________________________
reshape_5 (Reshape)              (None, 1, 1)          0           dense_5[0][0]                    
____________________________________________________________________________________________________
dense_6 (Dense)                  (None, 1)             49          flatten_6[0][0]                  
____________________________________________________________________________________________________
flatten_7 (Flatten)              (None, 48)            0           conv1d_7[0][0]                   
____________________________________________________________________________________________________
conv1d_8 (Conv1D)                (None, 48, 1)         121         concatenate_8[0][0]              
____________________________________________________________________________________________________
concatenate_9 (Concatenate)      (None, 48, 120)       0           lstm_17[0][0]                    
                                                                   lstm_18[0][0]                    
____________________________________________________________________________________________________
lstm_19 (LSTM)                   (None, 48, 60)        29040       lambda_10[0][0]                  
____________________________________________________________________________________________________
lstm_20 (LSTM)                   (None, 48, 60)        29040       lambda_10[0][0]                  
____________________________________________________________________________________________________
concatenate_14 (Concatenate)     (None, 5, 1)          0           concatenate_13[0][0]             
                                                                   reshape_5[0][0]                  
____________________________________________________________________________________________________
reshape_6 (Reshape)              (None, 1, 1)          0           dense_6[0][0]                    
____________________________________________________________________________________________________
dense_7 (Dense)                  (None, 1)             49          flatten_7[0][0]                  
____________________________________________________________________________________________________
flatten_8 (Flatten)              (None, 48)            0           conv1d_8[0][0]                   
____________________________________________________________________________________________________
conv1d_9 (Conv1D)                (None, 48, 1)         121         concatenate_9[0][0]              
____________________________________________________________________________________________________
concatenate_10 (Concatenate)     (None, 48, 120)       0           lstm_19[0][0]                    
                                                                   lstm_20[0][0]                    
____________________________________________________________________________________________________
concatenate_15 (Concatenate)     (None, 6, 1)          0           concatenate_14[0][0]             
                                                                   reshape_6[0][0]                  
____________________________________________________________________________________________________
reshape_7 (Reshape)              (None, 1, 1)          0           dense_7[0][0]                    
____________________________________________________________________________________________________
dense_8 (Dense)                  (None, 1)             49          flatten_8[0][0]                  
____________________________________________________________________________________________________
flatten_9 (Flatten)              (None, 48)            0           conv1d_9[0][0]                   
____________________________________________________________________________________________________
conv1d_10 (Conv1D)               (None, 48, 1)         121         concatenate_10[0][0]             
____________________________________________________________________________________________________
concatenate_16 (Concatenate)     (None, 7, 1)          0           concatenate_15[0][0]             
                                                                   reshape_7[0][0]                  
____________________________________________________________________________________________________
reshape_8 (Reshape)              (None, 1, 1)          0           dense_8[0][0]                    
____________________________________________________________________________________________________
dense_9 (Dense)                  (None, 1)             49          flatten_9[0][0]                  
____________________________________________________________________________________________________
flatten_10 (Flatten)             (None, 48)            0           conv1d_10[0][0]                  
____________________________________________________________________________________________________
concatenate_17 (Concatenate)     (None, 8, 1)          0           concatenate_16[0][0]             
                                                                   reshape_8[0][0]                  
____________________________________________________________________________________________________
reshape_9 (Reshape)              (None, 1, 1)          0           dense_9[0][0]                    
____________________________________________________________________________________________________
dense_10 (Dense)                 (None, 1)             49          flatten_10[0][0]                 
____________________________________________________________________________________________________
concatenate_18 (Concatenate)     (None, 9, 1)          0           concatenate_17[0][0]             
                                                                   reshape_9[0][0]                  
____________________________________________________________________________________________________
reshape_10 (Reshape)             (None, 1, 1)          0           dense_10[0][0]                   
____________________________________________________________________________________________________
concatenate_19 (Concatenate)     (None, 10, 1)         0           concatenate_18[0][0]             
                                                                   reshape_10[0][0]                 
____________________________________________________________________________________________________
lstm_21 (LSTM)                   (None, 10, 1)         12          concatenate_19[0][0]             
____________________________________________________________________________________________________
lstm_22 (LSTM)                   (None, 10, 1)         12          concatenate_19[0][0]             
____________________________________________________________________________________________________
concatenate_20 (Concatenate)     (None, 10, 2)         0           lstm_21[0][0]                    
                                                                   lstm_22[0][0]                    
____________________________________________________________________________________________________
conv1d_11 (Conv1D)               (None, 10, 1)         3           concatenate_20[0][0]             
====================================================================================================
Total params: 582,527
Trainable params: 582,527
Non-trainable params: 0
____________________________________________________________________________________________________
Epoch 1/5
  1/117 [..............................] - ETA: 7476s - loss: 0.7441 -
…
